…
    "chunk": "t\nFinal LayerNorm\nLinear output layer\n12\nDropout\nPositional embedding layer\nInputs\nFigure 6.9\nAdapting a GPT model for spam classification by altering its architecture. Initially, the model’s linear \noutput layer mapped 768 hidden units to a vocabulary of 50,257 tokens. To detect spam, we replace this layer \nwith a new output layer that maps the same 768 hidden units to just two classes, representing “spam” and “not \nspam.”\n\n--- Page 207 ---\n185\n6.5\nAdding a classification head\nBefore we attempt"
  },
  {
    "source": "Build a Large Language Mode_ (z-library.sk, 1lib.sk, z-lib.sk).pdf",
    "chunk": "(11): TransformerBlock(\n      (att): MultiHeadAttention(\n        (W_query): Linear(in_features=768, out_features=768, bias=True)\n        (W_key): Linear(in_features=768, out_features=768, bias=True)\n        (W_value): Linear(in_features=768, out_features=768, bias=True)\n        (out_proj): Linear(in_features=768, out_features=768, bias=True)\n        (dropout): Dropout(p=0.0, inplace=False)\n      )\n      (ff): FeedForward(\n        (layers): Sequential(\n          (0): Linear(in_features=768, out_f"
  },
  {
    "source": "Build a Large Language Mode_ (z-library.sk, 1lib.sk, z-lib.sk).pdf",
    "chunk": ")\n  )\n  (final_norm): LayerNorm()\n  (out_head): Linear(in_features=768, out_features=50257, bias=False)\n)\nThis output neatly lays out the architecture we laid out in chapter 4. As previously dis-\ncussed, the GPTModel consists of embedding layers followed by 12 identical transformer\nblocks (only the last block is shown for brevity), followed by a final LayerNorm and the\noutput layer, out_head. \n Next, we replace the out_head with a new output layer (see figure 6.9) that we will\nfine-tune.\nFine-tu"
…
    "chunk": "Next, we use the replace_linear_with_lora to replace the Linear layers:\nreplace_linear_with_lora(model, rank=16, alpha=16)\ntotal_params = sum(p.numel() for p in model.parameters() if p.requires_grad)\nprint(f\"Total trainable LoRA parameters: {total_params:,}\")\nAfter adding the LoRA layers, the number of trainable parameters is as follows:\nTotal trainable LoRA parameters: 2,666,528\nAs we can see, we reduced the number of trainable parameters by almost 50× when\nusing LoRA. A rank and alpha of 16 ar"
  },
  {
    "source": "Build a Large Language Mode_ (z-library.sk, 1lib.sk, z-lib.sk).pdf",
    "chunk": "cture:\ndevice = torch.device(\"cuda\" if torch.cuda.is_available() else \"cpu\")\nmodel.to(device)\nprint(model)\nThe output is\nGPTModel(\n  (tok_emb): Embedding(50257, 768)\n  (pos_emb): Embedding(1024, 768)\n  (drop_emb): Dropout(p=0.0, inplace=False)\n  (trf_blocks): Sequential(\n    ...\n    (11): TransformerBlock(\n      (att): MultiHeadAttention(\n        (W_query): LinearWithLoRA(\n          (linear): Linear(in_features=768, out_features=768, bias=True)\n          (lora): LoRALayer()\n        )\n        (W_"
  },
  {
    "source": "Build a Large Language Mode_ (z-library.sk, 1lib.sk, z-lib.sk).pdf",
    "chunk": "bias=True)\n          (lora): LoRALayer()\n        )\n        (W_value): LinearWithLoRA(\n          (linear): Linear(in_features=768, out_features=768, bias=True)\n          (lora): LoRALayer()\n        )\n\n--- Page 355 ---\n333\nE.4\nParameter-efficient fine-tuning with LoRA\n        (out_proj): LinearWithLoRA(\n          (linear): Linear(in_features=768, out_features=768, bias=True)\n          (lora): LoRALayer()\n        )\n        (dropout): Dropout(p=0.0, inplace=False)\n      )\n      (ff): FeedForward(\n  "
  },
  {
    "source": "Build a Large Language Mode_ (z-library.sk, 1lib.sk, z-lib.sk).pdf",
    "chunk": "eatures=768, bias=True)\n            (lora): LoRALayer()\n          )\n        )\n      )\n      (norm1): LayerNorm()\n      (norm2): LayerNorm()\n      (drop_resid): Dropout(p=0.0, inplace=False)\n    )\n  )\n  (final_norm): LayerNorm()\n  (out_head): LinearWithLoRA(\n    (linear): Linear(in_features=768, out_features=2, bias=True)\n    (lora): LoRALayer()\n  )\n)\nThe model now includes the new LinearWithLoRA layers, which themselves consist of\nthe original Linear layers, set to nontrainable, and the new LoRA"
  },
  {
    "source": "Build a Large Language Mode_ (z-library.sk, 1lib.sk, z-lib.sk).pdf",
    "chunk": "y_loader(\n    val_loader, model, device, num_batches=10\n)\ntest
…
